
Namespace(workers=10, epochs=200, start_epoch=0, batch_size=64, lr=0.001, print_freq=10, evaluate=False, seed=1000, T=2, means=1.0, TET=True, lamb=0.45, dataset='dvscifar10', nprocs=2)
VGGSNN9(
  (features): Sequential(
    (0): Layer(
      (fwd): SeqToANNContainer(
        (module): Sequential(
          (0): Conv2d(3, 32, kernel_size=(3, 3), stride=(1, 1), padding=(1, 1))
          (1): BatchNorm2d(32, eps=1e-05, momentum=0.1, affine=True, track_running_stats=True)
        )
      )
      (act): ZIFArchTan()
    )
    (1): Layer(
      (fwd): SeqToANNContainer(
        (module): Sequential(
          (0): Conv2d(32, 64, kernel_size=(3, 3), stride=(1, 1), padding=(1, 1))
          (1): BatchNorm2d(64, eps=1e-05, momentum=0.1, affine=True, track_running_stats=True)
        )
      )
      (act): ZIFArchTan()
    )
    (2): Layer(
      (fwd): SeqToANNContainer(
        (module): Sequential(
          (0): Conv2d(64, 64, kernel_size=(3, 3), stride=(1, 1), padding=(1, 1))
          (1): BatchNorm2d(64, eps=1e-05, momentum=0.1, affine=True, track_running_stats=True)
        )
      )
      (act): ZIFArchTan()
    )
    (3): SeqToANNContainer(
      (module): AvgPool2d(kernel_size=2, stride=2, padding=0)
    )
    (4): Layer(
      (fwd): SeqToANNContainer(
        (module): Sequential(
          (0): Conv2d(64, 128, kernel_size=(3, 3), stride=(1, 1), padding=(1, 1))
          (1): BatchNorm2d(128, eps=1e-05, momentum=0.1, affine=True, track_running_stats=True)
        )
      )
      (act): ZIFArchTan()
    )
    (5): Layer(
      (fwd): SeqToANNContainer(
        (module): Sequential(
          (0): Conv2d(128, 128, kernel_size=(3, 3), stride=(1, 1), padding=(1, 1))
          (1): BatchNorm2d(128, eps=1e-05, momentum=0.1, affine=True, track_running_stats=True)
        )
      )
      (act): ZIFArchTan()
    )
    (6): SeqToANNContainer(
      (module): AvgPool2d(kernel_size=2, stride=2, padding=0)
    )
    (7): Layer(
      (fwd): SeqToANNContainer(
        (module): Sequential(
          (0): Conv2d(128, 256, kernel_size=(3, 3), stride=(1, 1), padding=(1, 1))
          (1): BatchNorm2d(256, eps=1e-05, momentum=0.1, affine=True, track_running_stats=True)
        )
      )
      (act): ZIFArchTan()
    )
    (8): Layer(
      (fwd): SeqToANNContainer(
        (module): Sequential(
          (0): Conv2d(256, 256, kernel_size=(3, 3), stride=(1, 1), padding=(1, 1))
          (1): BatchNorm2d(256, eps=1e-05, momentum=0.1, affine=True, track_running_stats=True)
        )
      )
      (act): ZIFArchTan()
    )
    (9): SeqToANNContainer(
      (module): AvgPool2d(kernel_size=2, stride=2, padding=0)
    )
    (10): Layer(
      (fwd): SeqToANNContainer(
        (module): Sequential(
          (0): Conv2d(256, 512, kernel_size=(3, 3), stride=(1, 1), padding=(1, 1))
          (1): BatchNorm2d(512, eps=1e-05, momentum=0.1, affine=True, track_running_stats=True)
        )
      )
      (act): ZIFArchTan()
    )
    (11): Layer(
      (fwd): SeqToANNContainer(
        (module): Sequential(
          (0): Conv2d(512, 512, kernel_size=(3, 3), stride=(1, 1), padding=(1, 1))
          (1): BatchNorm2d(512, eps=1e-05, momentum=0.1, affine=True, track_running_stats=True)
        )
      )
      (act): ZIFArchTan()
    )
    (12): SeqToANNContainer(
      (module): AvgPool2d(kernel_size=2, stride=2, padding=0)
    )
  )
  (classifier1): SeqToANNContainer(
    (module): Linear(in_features=4608, out_features=512, bias=True)
  )
  (classifier2): SeqToANNContainer(
    (module): Linear(in_features=512, out_features=10, bias=True)
  )
  (drop): SeqToANNContainer(
    (module): Dropout(p=0.5)
  )
)
VGGSNN9(
  (features): Sequential(
    (0): Layer(
      (fwd): SeqToANNContainer(
        (module): Sequential(
          (0): Conv2d(3, 32, kernel_size=(3, 3), stride=(1, 1), padding=(1, 1))
          (1): BatchNorm2d(32, eps=1e-05, momentum=0.1, affine=True, track_running_stats=True)
        )
      )
      (act): ZIFArchTan()
    )
    (1): Layer(
      (fwd): SeqToANNContainer(
        (module): Sequential(
          (0): Conv2d(32, 64, kernel_size=(3, 3), stride=(1, 1), padding=(1, 1))
          (1): BatchNorm2d(64, eps=1e-05, momentum=0.1, affine=True, track_running_stats=True)
        )
      )
      (act): ZIFArchTan()
    )
    (2): Layer(
      (fwd): SeqToANNContainer(
        (module): Sequential(
          (0): Conv2d(64, 64, kernel_size=(3, 3), stride=(1, 1), padding=(1, 1))
          (1): BatchNorm2d(64, eps=1e-05, momentum=0.1, affine=True, track_running_stats=True)
        )
      )
      (act): ZIFArchTan()
    )
    (3): SeqToANNContainer(
      (module): AvgPool2d(kernel_size=2, stride=2, padding=0)
    )
    (4): Layer(
      (fwd): SeqToANNContainer(
        (module): Sequential(
          (0): Conv2d(64, 128, kernel_size=(3, 3), stride=(1, 1), padding=(1, 1))
          (1): BatchNorm2d(128, eps=1e-05, momentum=0.1, affine=True, track_running_stats=True)
        )
      )
      (act): ZIFArchTan()
    )
    (5): Layer(
      (fwd): SeqToANNContainer(
        (module): Sequential(
          (0): Conv2d(128, 128, kernel_size=(3, 3), stride=(1, 1), padding=(1, 1))
          (1): BatchNorm2d(128, eps=1e-05, momentum=0.1, affine=True, track_running_stats=True)
        )
      )
      (act): ZIFArchTan()
    )
    (6): SeqToANNContainer(
      (module): AvgPool2d(kernel_size=2, stride=2, padding=0)
    )
    (7): Layer(
      (fwd): SeqToANNContainer(
        (module): Sequential(
          (0): Conv2d(128, 256, kernel_size=(3, 3), stride=(1, 1), padding=(1, 1))
          (1): BatchNorm2d(256, eps=1e-05, momentum=0.1, affine=True, track_running_stats=True)
        )
      )
      (act): ZIFArchTan()
    )
    (8): Layer(
      (fwd): SeqToANNContainer(
        (module): Sequential(
          (0): Conv2d(256, 256, kernel_size=(3, 3), stride=(1, 1), padding=(1, 1))
          (1): BatchNorm2d(256, eps=1e-05, momentum=0.1, affine=True, track_running_stats=True)
        )
      )
      (act): ZIFArchTan()
    )
    (9): SeqToANNContainer(
      (module): AvgPool2d(kernel_size=2, stride=2, padding=0)
    )
    (10): Layer(
      (fwd): SeqToANNContainer(
        (module): Sequential(
          (0): Conv2d(256, 512, kernel_size=(3, 3), stride=(1, 1), padding=(1, 1))
          (1): BatchNorm2d(512, eps=1e-05, momentum=0.1, affine=True, track_running_stats=True)
        )
      )
      (act): ZIFArchTan()
    )
    (11): Layer(
      (fwd): SeqToANNContainer(
        (module): Sequential(
          (0): Conv2d(512, 512, kernel_size=(3, 3), stride=(1, 1), padding=(1, 1))
          (1): BatchNorm2d(512, eps=1e-05, momentum=0.1, affine=True, track_running_stats=True)
        )
      )
      (act): ZIFArchTan()
    )
    (12): SeqToANNContainer(
      (module): AvgPool2d(kernel_size=2, stride=2, padding=0)
    )
  )
  (classifier1): SeqToANNContainer(
    (module): Linear(in_features=4608, out_features=512, bias=True)
  )
  (classifier2): SeqToANNContainer(
    (module): Linear(in_features=512, out_features=10, bias=True)
  )
  (drop): SeqToANNContainer(
    (module): Dropout(p=0.5)
  )
)
----  --------  ------------  ------------  ------------  ---------  ------------  ------------  ------------  ---------------
  ep        lr    train_loss    train_top1    train_top5    avg_vth    valid_loss    valid_top1    valid_top5    Best_Accuracy
----  --------  ------------  ------------  ------------  ---------  ------------  ------------  ------------  ---------------
…
